models/diseased.onnx (onnx, 121830 bytes, 8 tensors)

conv1d_1_W f4 [32, 300, 3, 1]
0	0x80014893	-1.1787e-40
1	0xbcc0f39a	-0.023553658
2	0x8001a41a	-1.50704e-40
3	0x00012d55	1.08098e-40
4	0xbb92bfc8	-0.0044784285
5	0x0001567d	1.22862e-40
6	0x8001af21	-1.5466e-40
7	0xbcc30568	-0.023806289
8	0x0001895c	1.41111e-40
9	0x8000a243	-5.8209e-41
10	0xbc4ef4eb	-0.012631635
11	0x00015249	1.21354e-40
12	0x0000f4be	8.7797e-41
13	0xbc908d40	-0.017645478
14	0x00012165	1.03815e-40
15	0x800123d5	-1.0469e-40
16	0xbce10f05	-0.027472982
17	0x000154d9	1.22273e-40
18	0x8001e467	-1.73771e-40
19	0xbd1195f0	-0.035543382
20	0x0001e7a1	1.74928e-40
21	0x8000dffc	-8.035e-41
22	0xbd2880c8	-0.04113844
23	0x80010360	-9.3046e-41
24	0x00018f21	1.4318e-40
25	0xbd33ff07	-0.043944385
26	0x00015a54	1.24239e-40
27	0x0001ce99	1.65949e-40
28	0xbbcb0090	-0.0061951354
29	0x0000bb23	6.7132e-41
30	0x80010bec	-9.6112e-41
31	0xbd4ce05f	-0.050018664
32	0x800117fe	-1.00442e-40
33	0x000040bd	2.3224e-41
34	0xbd27ce0a	-0.04096798
35	0x80022a07	-1.98748e-40
36	0x80007210	-4.0918e-41
37	0xbbc796a4	-0.006090956
38	0x8000d074	-7.4779e-41
39	0x00006256	3.5276e-41
40	0xbcf74660	-0.030184925
41	0x00001713	8.277e-42
42	0x8000f85a	-8.9092e-41
43	0xbc9eac42	-0.019369248
44	0x00012bac	1.07502e-40
45	0x000193d9	1.44873e-40
46	0xbb19d6d0	-0.0023473985
47	0x0001da11	1.70063e-40
48	0x800046c6	-2.5389e-41
49	0x3ad0c927	0.0015929089
50	0x0000c300	6.9953e-41
51	0x0000e9b1	8.3833e-41
52	0x3ce9c877	0.028537972
53	0x80011b92	-1.01726e-40
54	0x00015c34	1.24912e-40
55	0x3d091b45	0.033473272
56	0x000096e4	5.413e-41
57	0x8000780c	-4.3065e-41
58	0x3b816330	0.0039485916
59	0x8001100d	-9.7593e-41
60	0x000115cb	9.9653e-41
61	0x3cc6c512	0.024263892
62	0x8001650f	-1.28088e-40
63	0x00000792	2.716e-42
64	0xbc25a9e9	-0.0101113105
65	0x800158ee	-1.23737e-40
66	0x80008b54	-4.9982e-41
67	0x3d73b3f3	0.059497785
68	0x800057f8	-3.1557e-41
69	0x80004bb6	-2.716e-41
70	0x3cb276a9	0.021785097
71	0x00007bfc	4.4477e-41
72	0x0001b0a2	1.552e-40
73	0x3d62598a	0.055261172
74	0x800094b6	-5.3347e-41
75	0x00014d65	1.196e-40
76	0xbc0c0f64	-0.008548591
77	0x8000862a	-4.8129e-41
78	0x0000b847	6.6106e-41
79	0xbce3ea62	-0.027821723
80	0x8000edd6	-8.532e-41
81	0x80008409	-4.7365e-41
82	0x3c4508d3	0.01202603
83	0x8001f54c	-1.79831e-40
84	0x00002eb6	1.6757e-41
85	0xbc623e99	-0.01380887
86	0x8000899d	-4.9366e-41
87	0x0000ad62	6.2198e-41
88	0xbd0ab7df	-0.03386676
89	0x800043f0	-2.4371e-41
90	0x000134d5	1.10788e-40
91	0x3cb0f306	0.021600258
92	0x80015943	-1.23857e-40
93	0x80013266	-1.09915e-40
94	0x3c454ffa	0.012042994
95	0x000158e3	1.23722e-40
96	0x80016d5b	-1.31065e-40
97	0xbc34a8d7	-0.011026583
98	0x80003bd5	-2.1464e-41
99	0x0000cde8	7.3865e-41
100	0xbcb0c542	-0.021578435
101	0x8001ee45	-1.7731e-40
102	0x80019daf	-1.48402e-40
103	0xbc22076d	-0.009889466
104	0x80006b2d	-3.8447e-41
105	0x8001049d	-9.349e-41
106	0x3d67814f	0.056519803
107	0x800070b0	-4.0425e-41
108	0x80014a67	-1.18526e-40
109	0xbccc57c3	-0.024944192
110	0x000199f2	1.4706e-40
111	0x0002178e	1.92121e-40
112	0xbcfacde2	-0.03061575
113	0x0000bdec	6.8131e-41
114	0x800084df	-4.7665e-41
115	0x3c739122	0.014866145
116	0x80009f16	-5.7069e-41
117	0x80005803	-3.1573e-41
118	0x3ccb618c	0.024826787
119	0x800088f9	-4.9137e-41
120	0x8000a82e	-6.0332e-41
121	0xbc5f8a52	-0.013643818
122	0x0001158c	9.9565e-41
123	0x80017d81	-1.36858e-40
124	0xbbb2dd76	-0.005458529
125	0x0000ddc2	7.9552e-41
126	0x80001c1e	-1.0087e-41
127	0xbca3784c	-0.019954823
128	0x00020425	1.85158e-40
129	0x00016636	1.28502e-40
130	0xbd3e1310	-0.0464049
131	0x8000ef37	-8.5814e-41
132	0x0001c5ac	1.62747e-40
133	0xbb5bd7d2	-0.0033545387
134	0x0000a37b	5.8646e-41
135	0x00011fce	1.03245e-40
136	0x3cc647ea	0.024204213
137	0x0001c610	1.62887e-40
138	0x8000f890	-8.9167e-41
139	0xbd8c0b67	-0.06838112
140	0x0001ca0d	1.64318e-40
141	0x8000dd3f	-7.9368e-41
142	0xbcf3d57a	-0.02976488
143	0x0000f6b2	8.8498e-41
144	0x80005c29	-3.3061e-41
145	0xbd9394d2	-0.072061196
146	0x80014ac3	-1.18655e-40
147	0x8000337c	-1.8469e-41
148	0x3c862db3	0.016379213
149	0x0001ba68	1.58705e-40
150	0x00008db9	5.084e-41
151	0xbcca741a	-0.024713565
152	0x00004589	2.4945e-41
153	0x8001f189	-1.78482e-40
154	0xbd1ba4bd	-0.037998904
155	0x8000e7ce	-8.3156e-41
156	0x0000bdfb	6.8152e-41
157	0xbcaabce7	-0.020842029
158	0x8000e02b	-8.0416e-41
159	0x0000f959	8.9449e-41
160	0x3d31bae8	0.04339114
161	0x8001aae3	-1.53138e-40
162	0x00011655	9.9847e-41
163	0x3ca83c91	0.020536693
164	0x8000917e	-5.2193e-41
165	0x000167e2	1.29102e-40
166	0x3db0b4f8	0.08628267
167	0x000133ff	1.10488e-40
168	0x8000672a	-3.7008e-41
169	0x3c93c3c1	0.018037679
170	0x80011512	-9.9394e-41
171	0x800127d2	-1.0612e-40
172	0x3bc53329	0.0060180617
173	0x00018989	1.41174e-40
174	0x00020478	1.85274e-40
175	0xbce2d10e	-0.027687576
176	0x000195e0	1.456e-40
177	0x80008f1b	-5.1337e-41
178	0x3d0092e9	0.031390104
179	0x00010d53	9.6615e-41
180	0x000038a2	2.0316e-41
181	0x3ca6a040	0.020340085
182	0x00018311	1.38853e-40
183	0x80006086	-3.4626e-41
184	0xbc81b7ac	-0.015834652
185	0x00014284	1.15697e-40
186	0x0000375a	1.9856e-41
187	0x3d538ef7	0.051650014
188	0x8000d230	-7.5401e-41
189	0x80003392	-1.85e-41
190	0x3d722e52	0.059126206
191	0x0000e5c9	8.2431e-41
192	0x0001408d	1.14992e-40
193	0xbca061e8	-0.019577935
194	0x8001ebb0	-1.76384e-40
195	0x800157b5	-1.23299e-40
196	0x3ac587c5	0.001507037
197	0x0000a50d	5.9209e-41
198	0x8001b7c8	-1.57764e-40
199	0xbcb71d90	-0.022352964
200	0x8000c04f	-6.8987e-41
201	0x0000b6ea	6.5617e-41
202	0x3bec4dd6	0.007211427
203	0x80010ae8	-9.5748e-41
204	0x8001699b	-1.2972e-40
205	0x3d7449cc	0.05964069
206	0x00013063	1.09193e-40
207	0x8000188f	-8.81e-42
208	0xbd8bb241	-0.068211086
209	0x00015985	1.23949e-40
210	0x00007288	4.1086e-41
211	0xbd0acc33	-0.033886146
212	0x0001f927	1.81215e-40
213	0x80013953	-1.124e-40
214	0xbbc097b4	-0.0058774594
215	0x8000bc62	-6.7579e-41
216	0x80014ae6	-1.18704e-40
217	0xbd3867dc	-0.045020923
218	0x0000fe0b	9.1133e-41
219	0x00010948	9.5165e-41
220	0x3c5d1e6b	0.013496022
221	0x8000575e	-3.1341e-41
222	0x8000a06b	-5.7547e-41
223	0x3c0771bf	0.008266865
224	0x8001ecdd	-1.76806e-40
225	0x00008792	4.8633e-41
226	0x3d048dd2	0.032361813
227	0x80008173	-4.6438e-41
228	0x0001596c	1.23914e-40
229	0xbcdd8dea	-0.027045209
230	0x80013b1c	-1.1304e-40
231	0x8001b611	-1.57149e-40
232	0xbc8afc8f	-0.016966132
233	0x8000ce20	-7.3944e-41
234	0x00008545	4.7808e-41
235	0x3d58f823	0.052971017
236	0x80004aa5	-2.6777e-41
237	0x000148f9	1.18013e-40
238	0x3d258024	0.040405408
239	0x80005e1d	-3.3761e-41
240	0x0001496a	1.18171e-40
241	0xbc8615f1	-0.016367884
242	0x00001b6d	9.839e-42
243	0x800010e4	-6.059e-42
244	0xbc658c6e	-0.014010532
245	0x0000f047	8.6195e-41
246	0x800178d2	-1.35178e-40
247	0xbcb08953	-0.021549856
248	0x00012096	1.03525e-40
249	0x800109eb	-9.5393e-41
250	0xbd97d461	-0.07413555
251	0x0000ff53	9.1593e-41
252	0x80013b3f	-1.13089e-40
253	0x3d8e4951	0.06947578
254	0x80014fcb	-1.2046e-40
255	0x80014956	-1.18143e-40

conv1d_1_B f4 [32]
0	0x3e23a908	0.15982449
1	0xbc6de66a	-0.014520267
2	0xbda4bcac	-0.08043799
3	0x3de762ec	0.11298165
4	0x3df59be3	0.11992624
5	0xbe6d106d	-0.23150797
6	0xbea3c491	-0.31985906
7	0x3d46c04f	0.048523244
8	0x3e3f79e3	0.1869884
9	0xbd97d1e0	-0.07413077
10	0x3e394605	0.18093117
11	0x3dbaf4af	0.09128701
12	0xbe8fb5af	-0.280683
13	0x3e1aa777	0.15102945
14	0x3ead0f30	0.3380065
15	0x3cb783cd	0.022401715
16	0xbd4adbb8	-0.049525946
17	0x3d9f32b1	0.077733405
18	0x3eaa169f	0.33220384
19	0x3d71e046	0.059051774
20	0xbd8aab5e	-0.06770967
21	0x3decf1c8	0.115695536
22	0x3d927068	0.07150346
23	0x3d25f8f9	0.040520642
24	0xbc3e84b6	-0.01162832
25	0xbd1a6318	-0.03769216
26	0xbdc0ff25	-0.09423665
27	0xbdd0142e	-0.10160099
28	0xbe664264	-0.22486264
29	0xbc4b4c2d	-0.012408298
30	0xbb0f5ace	-0.0021874192
31	0xbd7f31b4	-0.06230326

conv1d_2_W f4 [10, 32, 3, 1]
0	0x00000924	3.279e-42
1	0xbd975be1	-0.073905714
2	0x800029da	-1.5014e-41
3	0x0001e217	1.72941e-40
4	0x3e725048	0.23663437
5	0x000178bb	1.35145e-40
6	0x0001b043	1.55066e-40
7	0x3ec51c60	0.3849821
8	0x800190b4	-1.43745e-40
9	0x0000a15a	5.7882e-41
10	0x3eede4b4	0.4646355
11	0x80002ebb	-1.6764e-41
12	0x80004dd0	-2.7914e-41
13	0x3dbeb603	0.0931206
14	0x8001328d	-1.0997e-40
15	0x80005ea8	-3.3956e-41
16	0x3e170f48	0.14751923
17	0x80022cb6	-1.9971e-40
18	0x800036c8	-1.9652e-41
19	0x3e5f007f	0.21777533
20	0x800176ff	-1.34523e-40
21	0x80018c3c	-1.42142e-40
22	0xbe10bad4	-0.1413377
23	0x8000fe29	-9.1175e-41
24	0x80011b2b	-1.01582e-40
25	0xbde4a002	-0.111633316
26	0x80018480	-1.39368e-40
27	0x8000fc54	-9.0518e-41
28	0x3efc49a2	0.49274927
29	0x8001188a	-1.00638e-40
30	0x000044b2	2.4643e-41
31	0x3cac11df	0.021004615
32	0x8001fd60	-1.8273e-40
33	0x800027a4	-1.422e-41
34	0xbe172996	-0.14761958
35	0x00013325	1.10183e-40
36	0x00002354	1.2673e-41
37	0xbccc886c	-0.024967395
38	0x8000f5f7	-8.8236e-41
39	0x0001d8bd	1.69587e-40
40	0x3dcf5f6a	0.10125621
41	0x00004d5d	2.7753e-41
42	0x00005a1f	3.233e-41
43	0xbea85e1b	-0.32884297
44	0x0000c1ba	6.9496e-41
45	0x0000e042	8.0449e-41
46	0xbed15570	-0.40885496
47	0x00009fe7	5.7362e-41
48	0x00018920	1.41027e-40
49	0xbefd477a	-0.49468595
50	0x0000e1be	8.0981e-41
51	0x8000fb70	-9.0199e-41
52	0x3e21e0ab	0.1580836
53	0x00011d88	1.0243e-40
54	0x80000b60	-4.08e-42
55	0x3ed8ef7f	0.4237022
56	0x800083ee	-4.7327e-41
57	0x0000a09a	5.7613e-41
58	0x3de97559	0.113993354
59	0x00015fd6	1.26215e-40
60	0x00008dba	5.0842e-41
61	0xbe8d4e49	-0.2759879
62	0x0000173e	8.338e-42
63	0x0001e389	1.7346e-40
64	0xbd2eaa6d	-0.042643
65	0x8001d532	-1.68316e-40
66	0x8000a6bb	-5.9812e-41
67	0x3ebc158c	0.3673519
68	0x0000e058	8.048e-41
69	0x800130e5	-1.09376e-40
70	0x3ea50e58	0.32237506
71	0x80001191	-6.302e-42
72	0x00002ba3	1.5654e-41
73	0xbf069a09	-0.5257879
74	0x8000bf20	-6.8563e-41
75	0x00015b90	1.24682e-40
76	0xbded99d6	-0.116016075
77	0x8000ef0b	-8.5752e-41
78	0x80008ced	-5.0555e-41
79	0x3d59e719	0.053198908
80	0x800104b5	-9.3524e-41
81	0x8001c3af	-1.62034e-40
82	0x3ea92309	0.33034542
83	0x00014527	1.16643e-40
84	0x8000c3ef	-7.0288e-41
85	0x3ea5d238	0.32386947
86	0x000209b8	1.87157e-40
87	0x80017741	-1.34616e-40
88	0x80012e62	-1.08475e-40
89	0x000013b8	7.074e-42
90	0x8001c35a	-1.61914e-40
91	0xbececb5c	-0.40389526
92	0x000141fa	1.15503e-40
93	0x0000de84	7.9824e-41
94	0xbe9a7d73	-0.30173835
95	0x00008265	4.6777e-41
96	0x80006011	-3.4462e-41
97	0x3c80e03f	0.015731929
98	0x8001289b	-1.06402e-40
99	0x000186d0	1.40197e-40
100	0x3e1b733f	0.15180682
101	0x00009eb9	5.6939e-41
102	0x0000ae4a	6.2523e-41
103	0xbebb35ab	-0.36564383
104	0x00008403	4.7357e-41
105	0x00009854	5.4645e-41
106	0xbf2acfec	-0.66723514
107	0x0000a2c7	5.8394e-41
108	0x000081e7	4.66e-41
109	0xbe275e98	-0.16344678
110	0x00003215	1.7966e-41
111	0x0001366f	1.11363e-40
112	0xbe613d69	-0.21996082
113	0x0000ac65	6.1844e-41
114	0x0000ace2	6.2019e-41
115	0xbdc7c46a	-0.0975426
116	0x80008ae1	-4.982e-41
117	0x8000c446	-7.041e-41
118	0x3ee2a3b4	0.4426552
119	0x80007d5e	-4.4973e-41
120	0x0001b88d	1.5804e-40
121	0x3b751a3f	0.0037399677
122	0x00017b82	1.36142e-40
123	0x80014c4c	-1.19206e-40
124	0xbf05a838	-0.52209806
125	0x00016054	1.26392e-40
126	0x80009ee8	-5.7005e-41
127	0x3e03be06	0.12865457
128	0x000104ca	9.3553e-41
129	0x8000fab6	-8.9938e-41
130	0x3d384416	0.044986807
131	0x8000eee1	-8.5694e-41
132	0x0000727c	4.1069e-41
133	0xbdada2d2	-0.08478321
134	0x80014318	-1.15904e-40
135	0x8000abca	-6.1626e-41
136	0x3e51bcb8	0.20482147
137	0x8000475c	-2.5599e-41
138	0x8001bbad	-1.59161e-40
139	0x3ec68783	0.38775262
140	0x8001d117	-1.66843e-40
141	0x800103a2	-9.3139e-41
142	0x3ee432fc	0.44570148
143	0x8001bc9f	-1.595e-40
144	0x80013bcd	-1.13288e-40
145	0x3e9dfa40	0.30854988
146	0x8000d6a5	-7.7e-41
147	0x00016b7d	1.30395e-40
148	0x3dbc2ac4	0.091878444
149	0x00008321	4.704e-41
150	0x00011e3e	1.02684e-40
151	0xbf51998c	-0.8187492
152	0x80003f49	-2.2702e-41
153	0x00019164	1.43992e-40
154	0x3df3cc4c	0.11904201
155	0x0001141f	9.9054e-41
156	0x00007012	4.0203e-41
157	0x3ef0b67d	0.47014228
158	0x00018a37	1.41418e-40
159	0x8001fa46	-1.81617e-40
160	0xbd1f4f33	-0.03889389
161	0x800122c8	-1.04313e-40
162	0x800116df	-1.0004e-40
163	0xbf00acbc	-0.5026357
164	0x8001d4e7	-1.6821e-40
165	0x0000efbe	8.6003e-41
166	0xbed0385d	-0.40668002
167	0x80008cb6	-5.0478e-41
168	0x800012f2	-6.796e-42
169	0x3e8b83ad	0.27248898
170	0x0000c138	6.9314e-41
171	0x0001464b	1.17052e-40
172	0x3ec48026	0.3837902
173	0x0000febc	9.1381e-41
174	0x00012a17	1.06934e-40
175	0x3d2f58ce	0.0428093
176	0x8001c0f7	-1.61058e-40
177	0x00002e56	1.6622e-41
178	0xbea426ae	-0.3206076
179	0x0001a2b7	1.50207e-40
180	0x0000d410	7.6074e-41
181	0xbdea111a	-0.11429043
182	0x800006bd	-2.417e-42
183	0x80011c5a	-1.02006e-40
184	0x00015b58	1.24603e-40
185	0x0000c6d2	7.1323e-41
186	0x8000cd26	-7.3593e-41
187	0x3e83ac6e	0.2571749
188	0x800185d0	-1.39838e-40
189	0x8000afe7	-6.3102e-41
190	0x3ebde890	0.37091494
191	0x0001ee54	1.77332e-40
192	0x8002183b	-1.92363e-40
193	0x3e07eb42	0.13273337
194	0x80005586	-3.068e-41
195	0x80014d31	-1.19527e-40
196	0x3e07240c	0.13197345
197	0x0000a070	5.7554e-41
198	0x0001902e	1.43557e-40
199	0xbde348f0	-0.11097896
200	0x00003e3f	2.233e-41
201	0x80010d57	-9.6621e-41
202	0xbeacdab4	-0.33760607
203	0x8000a11c	-5.7795e-41
204	0x0000482b	2.5889e-41
205	0xbde6a806	-0.11262517
206	0x00009399	5.2948e-41
207	0x00018a45	1.41437e-40
208	0x3dcaeb70	0.099081874
209	0x0000f800	8.8966e-41
210	0x000024c2	1.3186e-41
211	0xbda9b233	-0.08285942
212	0x0000ee28	8.5434e-41
213	0x80015fd6	-1.26215e-40
214	0x3f0201f8	0.50784254
215	0x8000662f	-3.6657e-41
216	0x0000f431	8.76e-41
217	0x3e6c2e02	0.23064426
218	0x000041fd	2.3672e-41
219	0x8001b5d8	-1.57069e-40
220	0xbedc49ad	-0.4302496
221	0x0001f07d	1.78106e-40
222	0x80011360	-9.8786e-41
223	0x3e29887a	0.16555968
224	0x80001d03	-1.0407e-41
225	0x80019570	-1.45444e-40
226	0xbdfe0628	-0.12403518
227	0x8000edd6	-8.532e-41
228	0x80004d51	-2.7736e-41
229	0xbc93ee86	-0.018058073
230	0x00015595	1.22537e-40
231	0x00000027	5.5e-44
232	0x3d298b3f	0.04139256
233	0x800151d6	-1.21193e-40
234	0x0001449a	1.16445e-40
235	0x3dc3eb26	0.095663354
236	0x00006f36	3.9895e-41
237	0x80012aa0	-1.07126e-40
238	0x3e9ace42	0.30235487
239	0x00015a04	1.24127e-40
240	0x000096f8	5.4157e-41
241	0x3f2ec2c0	0.68265915
242	0x80012570	-1.05266e-40
243	0x8000709d	-4.0398e-41
244	0x3b6d2e34	0.003619087
245	0x00012f8c	1.08892e-40
246	0x00011ca2	1.02107e-40
247	0xbec95407	-0.3932192
248	0x8001316b	-1.09563e-40
249	0x00012412	1.04775e-40
250	0x3d008a05	0.031381626
251	0x00022469	1.96732e-40
252	0x0001f36f	1.79163e-40
253	0x3ebd55b4	0.3697945
254	0x00011ed2	1.02892e-40
255	0x000072da	4.1201e-41

conv1d_2_B f4 [10]
0	0x3c8e561d	0.017375046
1	0x3d09442b	0.033512276
2	0x3c5c9e68	0.013465501
3	0xbc5102fb	-0.012757058
4	0x3c3d8ca0	0.011569172
5	0xbda4a8b6	-0.080399916
6	0xb9b0e0cb	-0.0003373682
7	0xbb226e31	-0.0024784917
8	0x3c60093d	0.013674078
9	0xbe179b76	-0.14805397

fc_1_MatMul_W f4 [10, 10]
0	0xbed15878	-0.4088781
1	0xbda81834	-0.082077414
2	0xbeed15a0	-0.4630556
3	0x3c7a6fca	0.015285442
4	0xbe87e3ce	-0.2654099
5	0x3e5f5aca	0.21811977
6	0x3ec02ef1	0.37535813
7	0x3c3c2f4f	0.011485889
8	0x3f312ebc	0.69211936
9	0x3ed1e30a	0.4099353
10	0x3f5853c2	0.84502804
11	0xbf2432af	-0.6413984
12	0x3f2dc83b	0.6788365
13	0x3f559194	0.8342526
14	0x3ecfc58d	0.40580407
15	0xbeaee93c	-0.3416232
16	0xbeceaf49	-0.40368107
17	0xbe3a6216	-0.1820148
18	0xbdef6909	-0.11689956
19	0xbf2a7fd5	-0.66601306
20	0x3e810213	0.25196895
21	0x3d8a0b21	0.06740404
22	0xbeb827bf	-0.35967824
23	0x3efde9c1	0.49592403
24	0x3ec525c6	0.3850538
25	0xbf4b4c68	-0.7941346
26	0x3cdb3b22	0.026761595
27	0xbf2381fe	-0.6387023
28	0x3eb90450	0.36136103
29	0xbf4ad560	-0.79231834
30	0x3ea79a2d	0.32734814
31	0xbeac0ba6	-0.33602637
32	0x3f1051e2	0.56374943
33	0x3eaa9461	0.3331633
34	0x3e1716df	0.14754818
35	0x3e153a53	0.1457303
36	0xbe55e0e3	-0.20886569
37	0xbeea8d27	-0.45810816
38	0xbd511294	-0.051043108
39	0xbd33764a	-0.04381398
40	0x3c38cb11	0.011278884
41	0x3e8effa2	0.27929407
42	0x3ec79f2e	0.38988632
43	0xbdb7947a	-0.089638665
44	0xbd8d67e9	-0.06904585
45	0x3e9fee56	0.31236523
46	0x3e937a06	0.28804034
47	0x3f017bfb	0.50579804
48	0x3f08a18d	0.53371507
49	0x3eb2b4f4	0.3490368
50	0x3dc85af2	0.097829714
51	0xbdf9e992	-0.12202753
52	0x3d8f6220	0.07001138
53	0x3ea420bc	0.32056224
54	0x3e047cfb	0.12938301
55	0xbec1f4db	-0.37882122
56	0xbec690bd	-0.38782302
57	0xbedfdb90	-0.437222
58	0xbe502d2a	-0.20329729
59	0xbee6dec8	-0.45091844
60	0x80010882	-9.4888e-41
61	0x80014e82	-1.19999e-40
62	0x80013f1f	-1.14479e-40
63	0x0001caa0	1.64524e-40
64	0x000143c4	1.16145e-40
65	0x80012927	-1.06598e-40
66	0x00017bc3	1.36233e-40
67	0x000085ae	4.7955e-41
68	0x800156b3	-1.22937e-40
69	0x00016ee5	1.31617e-40
70	0x80017ecf	-1.37326e-40
71	0x000172be	1.32997e-40
72	0x00011e89	1.0279e-40
73	0x800098cf	-5.4817e-41
74	0x8001070a	-9.436e-41
75	0x00016636	1.28502e-40
76	0x0001e4f3	1.73967e-40
77	0x8000f667	-8.8393e-41
78	0x8001af14	-1.54642e-40
79	0x80002886	-1.4537e-41
80	0x3e8eb123	0.2786952
81	0xbd6121d3	-0.054963898
82	0x3e9fbede	0.31200308
83	0x3f401364	0.7502959
84	0x3f42f5fc	0.7615659
85	0xbf1c65be	-0.61092746
86	0xbe947778	-0.28997397
87	0xbf30b719	-0.69029385
88	0xbe46c32a	-0.19410387
89	0xbf4a8232	-0.7910491
90	0x3f4749aa	0.7784678
91	0x3bdb2643	0.0066879108
92	0x3f12e247	0.5737652
93	0x3e0003b1	0.12501408
94	0x3ef128ea	0.47101527
95	0xbf7e1646	-0.99252737
96	0xbf8e0f00	-1.1098328
97	0xbf810445	-1.0079428
98	0xbed20f5e	-0.4102735
99	0xbf762a23	-0.96158046

fc_1_Add_B f4 [10]
0	0x3d25215c	0.040315017
1	0x3b81a433	0.0039563417
2	0xbd145a3c	-0.036218867
3	0xbc7d1ec6	-0.0154492315
4	0x3d9bf4eb	0.07615074
5	0x3c8e462f	0.01736745
6	0xbbc2de79	-0.005946931
7	0xbce51966	-0.027966212
8	0x3c9dd431	0.01926622
9	0x3d6d96dd	0.058005203

fc_2_MatMul_W f4 [10, 2]
0	0x3f7c7c31	0.98627
1	0xbf00d704	-0.5032809
2	0xbf379850	-0.71716785
3	0x3db4bfef	0.08825671
4	0x3e5e2e32	0.2169731
5	0xbf2e4683	-0.6807634
6	0x3f49e198	0.78859854
7	0xbee95d76	-0.45579118
8	0x3f725812	0.94665635
9	0xbf070b66	-0.5275177
10	0xbf8e844e	-1.1134126
11	0x3f81d160	1.0142021
12	0xbea91c89	-0.33029583
13	0x3f96c6e5	1.1779448
14	0xbf6d3c86	-0.92670476
15	0x3fc8c04c	1.5683684
16	0xbf407d08	-0.7519078
17	0xbcd6401a	-0.026153613
18	0xbfb70f98	-1.4301634
19	0x3fce4091	1.6113454

fc_2_Add_B f4 [2]
0	0xbcbeebfb	-0.023305884
1	0x3cbeed91	0.02330664
