models/finalPSMC.onnx (onnx, 124056 bytes, 10 tensors)

fc_3_W f4 [10, 1, 1, 1]
0	0x3fd61900	1.6726379
1	0x3fbbeb0e	1.4681108
2	0x3fca9a46	1.582833
3	0xbfc41c8b	-1.5321211
4	0xbfc73a02	-1.5564578
5	0x3fb530c9	1.4155513
6	0xbfb9a1e5	-1.4502531
7	0xbfadfbfe	-1.3592527
8	0x3fc82d71	1.5638868
9	0xbfd7726e	-1.6831796

fc_3_B f4 [10]
0	0x3cf32447	0.029680384
1	0x3d0a2455	0.033726055
2	0x3d1ba1c1	0.037996057
3	0xbc9a72b0	-0.018853515
4	0xbc962bed	-0.018331492
5	0x3c97df8d	0.018539215
6	0xbd01a2ee	-0.031649522
7	0xbc87215f	-0.016495405
8	0x3ca0f546	0.019648205
9	0xbd17778d	-0.036979247

conv_2_W f4 [10, 1, 1, 3]
0	0xbf1ca208	-0.6118474
1	0x3f3e9146	0.7444042
2	0xbe86ba99	-0.26314238
3	0x3e3191f1	0.17340828
4	0x3f3dfa8d	0.74210435
5	0x3ece3b49	0.40279606
6	0xbc17fe07	-0.009276873
7	0xbf580e86	-0.8439716
8	0xbf1e94cc	-0.61945796
9	0xbf36fde6	-0.7148117
10	0xbe01415d	-0.1262259
11	0x3f2b836c	0.6699741
12	0x3f1eadd2	0.6198398
13	0x3e60438a	0.21900764
14	0xbf4d5bef	-0.80218405
15	0xbc9a0972	-0.018803332
16	0xbf833fb6	-1.0253818
17	0xbf06f66d	-0.52719766
18	0xbecb7a80	-0.39741898
19	0xbf37c17f	-0.71779627
20	0xbf0f8284	-0.56058526
21	0x3e86830d	0.2627186
22	0xbe8a35fb	-0.2699431
23	0xbc12efdf	-0.008968323
24	0x3f07ce3b	0.5304906
25	0xbe61fa5d	-0.22068162
26	0x3ee3cda6	0.44492835
27	0xbf700088	-0.9375081
28	0x3db5d423	0.088783525
29	0xbe989531	-0.29801324

conv_2_B f4 [10]
0	0xbd292f40	-0.041304827
1	0xbdc29974	-0.09501925
2	0xbe273e35	-0.16332324
3	0xbb990261	-0.004669473
4	0xbd5986b8	-0.053106993
5	0x3cd71488	0.026254907
6	0xbe45b04d	-0.19305535
7	0x3c90fd53	0.01769892
8	0x3dd340c0	0.103150845
9	0x3d8d1d6e	0.06890379

conv_1_W f4 [10, 10, 1, 3]
0	0xbf05f0d8	-0.52320623
1	0xbe567bd8	-0.2094568
2	0xbe6c25fb	-0.23061363
3	0x3e9c2406	0.30496234
4	0x3e02e55c	0.12782806
5	0x3e687d50	0.22704053
6	0xbf02d20b	-0.5110175
7	0xbf069436	-0.525699
8	0xbecf04ca	-0.4043334
9	0xbe65b7f4	-0.22433454
10	0xbe5ed312	-0.21760204
11	0xbd1c7ba9	-0.03820387
12	0x3c857cfe	0.016294952
13	0x3efed5c0	0.49772453
14	0x3ec31aa4	0.38106263
15	0xbd83892f	-0.0642265
16	0xbcfaebb5	-0.030629972
17	0xbe94c03a	-0.29052907
18	0xbe905867	-0.28192446
19	0xbec453c6	-0.38345164
20	0xbe0fb5ef	-0.14034246
21	0x3d4a67b5	0.04941531
22	0x3e09998d	0.13437481
23	0x3d2d87bb	0.04236577
24	0xbe411588	-0.1885587
25	0x3e0433bb	0.12910359
26	0xbe353dd4	-0.17699367
27	0x3ee1becd	0.44090882
28	0xbc634a67	-0.013872719
29	0xbda8a49e	-0.08234523
30	0x3d9720c9	0.073793
31	0xbe4d99e5	-0.20078237
32	0xbf1b0e82	-0.6056901
33	0xbe748c21	-0.2388158
34	0xbe3122e7	-0.1729847
35	0x3bdee9f0	0.00680279
36	0xbed6a1e3	-0.41920385
37	0xbf40ce6b	-0.7531497
38	0xbf1473de	-0.579893
39	0x3f2fc330	0.6865721
40	0x3ef2b92c	0.474069
41	0x3eccb859	0.39984396
42	0xbe4fd148	-0.20294678
43	0xbe65b0d8	-0.22430742
44	0xbf42a56e	-0.76033676
45	0x3ed9764e	0.42473072
46	0x3dd0cee9	0.10195715
47	0x3ebc6bd4	0.36801016
48	0xbee23810	-0.44183397
49	0xbf39ddb7	-0.72603935
50	0xbf370f90	-0.7150812
51	0xbd8cfd0e	-0.06884204
52	0x3db609db	0.088885985
53	0x3ea1aec6	0.31578654
54	0x3d94fc23	0.07274654
55	0x3da83eb7	0.08215087
56	0x3ef4c8fb	0.47809586
57	0xbda3aff9	-0.079925485
58	0x3eb5f67a	0.3553961
59	0x3e86685f	0.26251504
60	0x3d1e268a	0.038610972
61	0x3e45fa8f	0.19333862
62	0x3d04b08f	0.032394942
63	0xbd4e9269	-0.050432596
64	0xbdaf059f	-0.08545994
65	0xbf1af000	-0.6052246
66	0xbd9735d6	-0.07383315
67	0xbddfefb2	-0.1093439
68	0x3c8aae37	0.016928775
69	0x3f03863c	0.513767
70	0x3e06ba36	0.13156971
71	0xbf1b7cf8	-0.6073756
72	0x3dd6cf07	0.10488706
73	0xbc38f8d2	-0.011289792
74	0xbeb6d57a	-0.35709745
75	0xbf4aa6dd	-0.79160863
76	0xbeb126dd	-0.34599963
77	0x3d630567	0.055425074
78	0xbbcd7551	-0.0062700887
79	0xbd7451ae	-0.05964821
80	0x3d9f940d	0.0779191
81	0x3e685395	0.22688134
82	0x3dfede8e	0.12444793
83	0x3dd5245b	0.10407325
84	0x3e862f54	0.26207983
85	0x3dec5f05	0.11541561
86	0x3e77e567	0.24208604
87	0xbe702345	-0.23450954
88	0xbe513881	-0.20431711
89	0x3d9872d2	0.07443775
90	0x3ec8e7b1	0.39239267
91	0x3eba2d57	0.36362717
92	0x3ea6624a	0.32496864
93	0xbdb1578b	-0.086592756
94	0xbd072776	-0.032996617
95	0xbe7787e1	-0.24172927
96	0xbcaf61fe	-0.021409031
97	0x3b5cf6c7	0.0033716427
98	0x3edd3fe8	0.4321282
99	0x3f0af4db	0.5427987
100	0x3e80be2d	0.25145093
101	0x3e941ef4	0.28929865
102	0x3ef77889	0.4833415
103	0x3e63554c	0.22200507
104	0x3f057b88	0.5214162
105	0xbe335b2d	-0.1751525
106	0x3e051f9b	0.13000338
107	0x3ec013b0	0.3751502
108	0xbe294c4e	-0.16533014
109	0xbec333b0	-0.38125372
110	0xbd1bd80a	-0.038047828
111	0xbd291f61	-0.04128969
112	0x3e7eae3d	0.24871154
113	0xbaf09455	-0.0018354753
114	0xbda64567	-0.08118706
115	0xbe8ad743	-0.27117357
116	0xbebe5328	-0.37172818
117	0xbdcb0e92	-0.099148884
118	0xbe7cb59e	-0.24678656
119	0xbdc8cccb	-0.09804686
120	0xbed6d065	-0.41955867
121	0xbe99b39e	-0.3001985
122	0xbe8990b1	-0.26868203
123	0x3f0ac438	0.54205656
124	0x3ed993c5	0.42495552
125	0x3e9b72c4	0.30360997
126	0x3eb8a2fc	0.36061847
127	0x3da468f3	0.0802783
128	0xbe83ca6b	-0.2574037
129	0xbee9c662	-0.45659167
130	0xbe71eb92	-0.23625019
131	0x3e7658d0	0.24057317
132	0x3df6a8f7	0.12043946
133	0xbde696aa	-0.11259206
134	0x3ec13630	0.37736654
135	0x3eeaf8f7	0.4589307
136	0x3e33781c	0.17526287
137	0xbe1a0c5f	-0.15043782
138	0x3dae1172	0.08499421
139	0x3d4bfa9e	0.049799554
140	0xbeaf70eb	-0.34265837
141	0xbea47287	-0.32118627
142	0xbe6bf21a	-0.23041573
143	0xbe375213	-0.17902403
144	0x3e959949	0.2921851
145	0x3dc10810	0.09425366
146	0xbe97983d	-0.29608336
147	0x3e4e388b	0.20138757
148	0x3ee5988b	0.44842944
149	0xbd8aae4b	-0.06771525
150	0xbe8e1f2b	-0.27758154
151	0xbee4abe1	-0.44662383
152	0xbef3e7f5	-0.47637907
153	0x3e186c3e	0.14885041
154	0xbe7dc94e	-0.24783823
155	0xbcfee9ee	-0.031117406
156	0xbed1a1e1	-0.40943816
157	0x3e7e7b27	0.24851666
158	0x3f20808b	0.6269614
159	0xbf218dc7	-0.6310696
160	0xbf7e2ac5	-0.9928401
161	0xbf804226	-1.0020187
162	0x3db5566e	0.08854376
163	0x3e0f3b24	0.13987404
164	0x3e8cceb9	0.27501467
165	0xbead6545	-0.33866325
166	0x3ef8f638	0.4862535
167	0x3f85538f	1.0416125
168	0xbf066dc3	-0.52511233
169	0xbd01ff18	-0.031737417
170	0x3f17f5c5	0.5935939
171	0xbd9905eb	-0.07471832
172	0xbd68012d	-0.056641746
173	0xbdcd5140	-0.10025263
174	0x3d8e6bf6	0.06954186
175	0x3eac22c5	0.33620277
176	0x3e0f84f6	0.14015564
177	0xbf28af1c	-0.65892196
178	0xbf0d03b5	-0.5508378
179	0x3edccebc	0.43126476
180	0xbc09c72c	-0.008409303
181	0xbe300284	-0.1718846
182	0x3beba1c2	0.007190914
183	0x3f064777	0.52452797
184	0x3a0917e7	0.0005229697
185	0xbe02b0dd	-0.1276278
186	0xbccce41b	-0.025011113
187	0xbdade9a4	-0.08491829
188	0xbcbc75e5	-0.023005435
189	0xbec6ae4f	-0.38804862
190	0xbeb38c00	-0.3506775
191	0x3c93b94c	0.018032692
192	0xbe9808a7	-0.296941
193	0xbe402d5d	-0.18767305
194	0xbf0f7a10	-0.5604563
195	0xbe9f47b6	-0.311094
196	0xbf24edf6	-0.644256
197	0xbd92de15	-0.07171265
198	0xbcb7eb49	-0.02245106
199	0x3c521315	0.012821932
200	0xbd6b6ad4	-0.057474926
201	0xbdc188f4	-0.0944995
202	0x3e011e34	0.12609178
203	0xbd9b9232	-0.07596244
204	0x3eb9bbe8	0.36276174
205	0x3e74b1ae	0.23895904
206	0x3e18b3a8	0.14912283
207	0x3e55f4cc	0.20894164
208	0xbebfd4ed	-0.37467137
209	0xbe95e28f	-0.29274413
210	0xbd563444	-0.052295938
211	0xbe8de759	-0.27715567
212	0xbf2716f3	-0.6526939
213	0xbe82dce3	-0.25559148
214	0x3ecc4024	0.39892685
215	0x3eb21ae0	0.3478613
216	0xbdf51044	-0.11965993
217	0x3eb83f38	0.35985732
218	0xbc8985c4	-0.016787417
219	0x3e9af604	0.3026582
220	0x3e119de8	0.14220393
221	0x3e1f9493	0.1558402
222	0xbecfcf76	-0.40587968
223	0xbee939a2	-0.45551783
224	0xbec6bc78	-0.38815665
225	0x3e878f83	0.26476678
226	0x3ee1c08b	0.4409221
227	0x3e977d58	0.29587817
228	0xbc701b18	-0.014654897
229	0x3e51e4a7	0.2049738
230	0x3e39ff80	0.18163872
231	0xbea49d88	-0.32151437
232	0xbe5a2351	-0.21302535
233	0x3e5a8f67	0.21343766
234	0xbf24d867	-0.64392704
235	0xbdce13e8	-0.100623906
236	0x3e366c75	0.1781481
237	0xbdf36fce	-0.118865594
238	0x3d669b73	0.05630059
239	0x3dca143e	0.09867142
240	0xbf052619	-0.5201126
241	0xbf413e0c	-0.754853
242	0xbf139861	-0.57654387
243	0x3ec0ca8f	0.3765454
244	0x3ebbf1a4	0.36707795
245	0x3d1d1781	0.038352493
246	0x3d927445	0.07151083
247	0xbd5bf7dc	-0.053703174
248	0xbdb1fb41	-0.08690501
249	0x3f0874a6	0.5330299
250	0x3f174847	0.5909466
251	0x3e98e634	0.2986313
252	0x3e660d73	0.22466068
253	0xbe15867e	-0.14602086
254	0x3f3df516	0.74202096
255	0x3e2152db	0.15754263

conv_1_B f4 [10]
0	0x3b1ca00f	0.0023899113
1	0xbdecd871	-0.115647204
2	0x3e42e69b	0.19033282
3	0xbdee5d2c	-0.11638865
4	0xbf2e6808	-0.6812749
5	0xbe68aedc	-0.22722954
6	0xbdcac29b	-0.09900399
7	0xbe566475	-0.20936759
8	0xbe8a6ee4	-0.27037728
9	0xbdaba16f	-0.083804004

fc_2_W f4 [10, 10, 1, 301]
0	0x3c174760	0.009233326
1	0x3c4368df	0.011926859
2	0x3c36c6d2	0.011155801
3	0xbbc924dc	-0.006138427
4	0xbccffc07	-0.02538873
5	0xbd0dd5f5	-0.034627873
6	0xbd0d8f60	-0.03456056
7	0xbd3464ed	-0.044041563
8	0xbd8edd3b	-0.0697579
9	0xbd6908f1	-0.056893293
10	0xbd660a54	-0.056162193
11	0xbd490a8b	-0.04908232
12	0xbd2c9d7e	-0.042142384
13	0xbca486fc	-0.020083897
14	0xbcf0d3a2	-0.02939779
15	0xbd381a05	-0.04494669
16	0xbcb2228b	-0.021744987
17	0xbd01e5b2	-0.031713195
18	0xbc9c630d	-0.0190902
19	0x3c62435b	0.013810004
20	0x3d003205	0.031297702
21	0x3ce65b9b	0.028119853
22	0x3ce32423	0.027727192
23	0x3d11c31d	0.035586465
24	0x3ce6872c	0.028140627
25	0xba1dd57b	-0.0006020886
26	0x3c5e92bb	0.013584788
27	0x3ce913b6	0.028451782
28	0x3d589db5	0.052884776
29	0x3d206b2d	0.03916471
30	0x3ce88c58	0.028387234
31	0x3d14e59d	0.03635179
32	0x3d0fc70d	0.03510194
33	0x3c045e0e	0.008079065
34	0xbc158048	-0.009124823
35	0xbc8e6da9	-0.017386274
36	0xbc509ec4	-0.012733165
37	0x3b8da2c4	0.0043223817
38	0x3d512177	0.051057305
39	0x3da87354	0.08225122
40	0x3dc04339	0.09387822
41	0x3e009a1e	0.12558791
42	0x3e03b1f3	0.12860851
43	0x3e072766	0.13198623
44	0x3deee18f	0.11664116
45	0x3dab33cd	0.083594896
46	0x3d3e870f	0.04651552
47	0x3d7c0300	0.0615263
48	0x3d72a11a	0.05923567
49	0x3d8c16b5	0.068402685
50	0x3d96fcaf	0.07372414
51	0x3db00125	0.08593968
52	0x3dde23ad	0.10846648
53	0x3de9da7b	0.11418625
54	0x3dd3ef3f	0.10348367
55	0x3dc7ec9e	0.09761928
56	0x3df2c8ec	0.11854729
57	0x3e16f448	0.14741623
58	0x3e1acd22	0.15117314
59	0x3e2424b4	0.16029626
60	0x3e0a4ae4	0.13505131
61	0x3dee7739	0.11643834
62	0x3dce60d4	0.10077062
63	0x3e1fdd76	0.15611824
64	0x3e461b31	0.1934631
65	0x3e38665f	0.18007801
66	0x3de98448	0.11402184
67	0x3d7747b1	0.060371105
68	0x3d882038	0.0664677
69	0x3d9c2f33	0.0762619
70	0x3d368fa1	0.04457057
71	0x3c9c0470	0.019045085
72	0x3ce6d862	0.028179351
73	0x3cdcd9ff	0.026959417
74	0x3d6e9fed	0.058257986
75	0x3d7ac78f	0.06122547
76	0x3dc2a3ad	0.09503875
77	0x3e076f25	0.13225992
78	0x3e0be178	0.13660228
79	0x3e019b61	0.12656929
80	0x3dea1de8	0.114314854
81	0x3dc61af0	0.09673107
82	0x3dcf3487	0.10117441
83	0x3e1e7df5	0.15477736
84	0x3e3af8a0	0.18258905
85	0x3e47de3a	0.19518366
86	0x3e32d523	0.17464118
87	0x3e0959a9	0.13413109
88	0x3d48849d	0.048954595
89	0x3cda9fef	0.02668759
90	0x3d936e34	0.07198754
91	0x3da49afc	0.080373734
92	0x3dafb589	0.08579547
93	0x3dc04a43	0.09389164
94	0x3e0dee69	0.13860478
95	0x3dfd6c01	0.12374116
96	0x3e0af537	0.13570105
97	0x3dbfd1b2	0.09366168
98	0x3caeb4f3	0.021326518
99	0xbd32ace2	-0.043621905
100	0xbd83607a	-0.06414886
101	0xbd90b0cd	-0.07064972
102	0xbcc3bc33	-0.023893451
103	0xbc8f637b	-0.01750349
104	0xbd1bc988	-0.038033992
105	0xbd9be9c6	-0.07612948
106	0xbdec9193	-0.115512036
107	0xbdd40bf6	-0.10353844
108	0xbdc89475	-0.09793941
109	0xbda09af4	-0.07842055
110	0xbdc246f9	-0.09486193
111	0xbdccc90d	-0.09999285
112	0xbded7150	-0.11593878
113	0xbde5ab3d	-0.11214302
114	0xbe08d9cb	-0.13364331
115	0xbe21f7bb	-0.15817158
116	0xbe4359c7	-0.19077216
117	0xbe5238c4	-0.20529467
118	0xbe5529ba	-0.20816699
119	0xbe517d75	-0.20458014
120	0xbe3f1dfd	-0.18663783
121	0xbe25b0c3	-0.1618071
122	0xbe178a55	-0.14798863
123	0xbe052d41	-0.13005544
124	0xbdf48b49	-0.11940629
125	0xbdeece2d	-0.11660419
126	0xbddb9d77	-0.107233934
127	0xbdc847cc	-0.09779319
128	0xbd9a9632	-0.07548179
129	0xbd8d130d	-0.06888399
130	0xbd772bf6	-0.06034466
131	0xbd53aff6	-0.05168148
132	0xbd118d75	-0.035535295
133	0xbcb4a4e7	-0.022051288
134	0xba81c1ce	-0.0009899677
135	0x3ce3a943	0.027790671
136	0x3d0c590d	0.034264613
137	0x3c41c1f2	0.011826025
138	0xbc119dc2	-0.00888771
139	0x3c491a0a	0.012274275
140	0x3da54f51	0.08071769
141	0x3e2873c5	0.16450413
142	0x3e01dc31	0.12681653
143	0x3d6e0864	0.05811347
144	0xbc15c25c	-0.009140577
145	0xbd9877c5	-0.07444719
146	0x3d9fc7a0	0.07801747
147	0x3e94551c	0.28971183
148	0x3ccb9f46	0.02485622
149	0xbd63280d	-0.055458117
150	0xbc7188cb	-0.014742087
151	0x3ca1e75e	0.019763645
152	0x3df04086	0.11731057
153	0x3e867293	0.26259288
154	0x3ed1ec4c	0.41000593
155	0x3ed150b3	0.4088188
156	0x3d8c8da1	0.06862951
157	0xbeccb323	-0.3998042
158	0xbe1814f5	-0.14851744
159	0xbd7116f9	-0.0588598
160	0xbdc8e928	-0.09810096
161	0xbdf08b8c	-0.117453665
162	0xbdedeed3	-0.11617818
163	0xbd8ced0c	-0.068811506
164	0xbd2efed4	-0.04272349
165	0xbcc13d38	-0.023588762
166	0xbc876b22	-0.016530577
167	0xbc830dc0	-0.015997767
168	0xbc9fde25	-0.019515106
169	0xbcc7865c	-0.02435606
170	0xbd00425c	-0.031313285
171	0xbd22e24e	-0.039766602
172	0xbd34c7e9	-0.04413596
173	0xbd3585f4	-0.0443172
174	0xbd333aab	-0.043757122
175	0xbd0e1fc2	-0.034698255
176	0xbcdc4db1	-0.026892515
177	0xbcf46b05	-0.029836187
178	0xbca38aac	-0.019963585
179	0xbc82d85f	-0.015972314
180	0xbc45555e	-0.012044279
181	0xbbd22ebb	-0.006414262
182	0x3c71ae9c	0.014751103
183	0x3d080014	0.0332032
184	0x3d3b840c	0.045780227
185	0x3d5fafb4	0.054610923
186	0x3d33fd4c	0.043942735
187	0x3cf3a3ef	0.029741256
188	0x3c5ae477	0.013360134
189	0xbbef2649	-0.007298265
190	0xbcf6bfa8	-0.030120686
191	0xbd5c1bc3	-0.053737413
192	0xbda0066c	-0.07813725
193	0xbda4fccb	-0.08056029
194	0xbd867509	-0.065652914
195	0xbcd69a56	-0.02619664
196	0xbbd6aeca	-0.006551598
197	0xbb3cc39b	-0.0028803113
198	0x3bcbe6f2	0.006222599
199	0x3cf36083	0.029709106
200	0x3cb355d2	0.021891508
201	0x3c270a4a	0.010195324
202	0xbc21ad40	-0.009867966
203	0xbce9023e	-0.028443452
204	0xbd3fecd8	-0.04685673
205	0xbd42fe86	-0.047606014
206	0xbd8e83b2	-0.06958713
207	0xbd82a0ef	-0.06378352
208	0xbd1325f9	-0.035924885
209	0xbc8aaed7	-0.016929073
210	0xbd057b25	-0.032588143
211	0xbd00a69a	-0.031408884
212	0xbc7ac7d9	-0.015306436
213	0xbbf984a6	-0.00761469
214	0xbd107e6a	-0.035276808
215	0xbd7002ee	-0.058596544
216	0xbd2edbc8	-0.04269007
217	0xbce83bef	-0.028348891
218	0xbd514671	-0.05109257
219	0xbd32e888	-0.04367879
220	0xbcf8bb63	-0.03036279
221	0xbd1bf74e	-0.038077645
222	0xbd2d9f6a	-0.042388357
223	0xbd825e6e	-0.06365667
224	0xbd8fa2a0	-0.0701344
225	0xbd8fca01	-0.07020951
226	0xbd567c81	-0.05236483
227	0xbd216e19	-0.039411638
228	0xbce6ed81	-0.028189423
229	0xbcb85907	-0.022503389
230	0xbcb0e0e9	-0.02159162
231	0xbc729c34	-0.01480775
232	0x3b732d69	0.0037105924
233	0x3cb5414c	0.022125863
234	0x3cd436db	0.025905063
235	0xbc83cef9	-0.016089903
236	0xbd3d450e	-0.046208434
237	0xbc7c38ee	-0.0153944325
238	0x3d128d1e	0.03577911
239	0x3d8dd677	0.069256715
240	0x3db37f20	0.087644815
241	0x3dbc96f4	0.092084795
242	0x3dc784ef	0.09742152
243	0x3da2d266	0.079502866
244	0x3cbbfb7f	0.022947071
245	0xbc5aabff	-0.013346671
246	0x3ba54bbe	0.0050444296
247	0x3ce7cc50	0.028295666
248	0x3c870384	0.016481169
249	0x3d1690b9	0.036759112
250	0x3d413c49	0.047176633
251	0xbace9122	-0.0015759806
252	0x3b89bec8	0.004203651
253	0x3c96882b	0.018375477
254	0x3d4cca06	0.049997352
255	0x3d60d95b	0.054894786

fc_2_B f4 [10]
0	0xbcf566eb	-0.029956302
1	0x3c893d46	0.01675285
2	0xbd94566e	-0.07243048
3	0x3edd3d06	0.4321062
4	0xbbbb2fa2	-0.0057124654
5	0xbba79f2b	-0.00511541
6	0xbdcd37da	-0.100204185
7	0xbe4e555b	-0.20149748
8	0x3e430b8b	0.19047372
9	0x3cf5efe6	0.030021619

fc_1_W f4 [6, 10, 1, 1]
0	0x3eacaa73	0.33723792
1	0xbf6204d4	-0.8828862
2	0xbed2db57	-0.41182968
3	0xbe5cf72e	-0.21578667
4	0x80069fd5	-6.0835e-40
5	0x8001ca9a	-1.64515e-40
6	0xbe8c7dd2	-0.27439743
7	0x3f790ee4	0.97288346
8	0xbcd21d18	-0.025648639
9	0xbf81deb8	-1.0146093
10	0x3fcf37b0	1.618887
11	0xbcbcdab0	-0.023053497
12	0xbfe9cb6a	-1.8265202
13	0xbfe53907	-1.7908028
14	0x0002c675	2.54864e-40
15	0x00000c70	4.462e-42
16	0xbfbba85d	-1.4660755
17	0xbec619d8	-0.38691592
18	0x3ee1940b	0.4405826
19	0xbdd66497	-0.10468405
20	0xbf3bacc9	-0.73310524
21	0xbf1babe6	-0.6080917
22	0x3eefd6db	0.4684361
23	0xbee903a8	-0.45510602
24	0x0001a11a	1.49628e-40
25	0x80022f5d	-2.00662e-40
26	0x3f3b85f0	0.7325125
27	0x3deb11a0	0.11477971
28	0x3f458e2f	0.7717008
29	0xbea7497d	-0.32673255
30	0xbeb68d99	-0.35654905
31	0xbe9179e3	-0.28413305
32	0xbe801cea	-0.2502206
33	0xbdd9b845	-0.1063085
34	0x0002a43f	2.42591e-40
35	0x80041d19	-3.7778e-40
36	0xbe0da7e7	-0.13833581
37	0xbf047008	-0.51733446
38	0xbe2bca63	-0.16776423
39	0x3e7f3b59	0.24924983
40	0x3d48f1b9	0.04905865
41	0x3f3f453d	0.74715024
42	0x3f75bab0	0.9598799
43	0xbdb873bd	-0.0900645
44	0x0005e8e7	5.42727e-40
45	0x800116e1	-1.00043e-40
46	0x3f417258	0.755651
47	0x3d7c0d2b	0.061535995
48	0xbe31ad72	-0.1735132
49	0x3f3441fa	0.7041317
50	0xbcb14f36	-0.021644216
51	0xbf830588	-1.0236063
52	0xbf5177dd	-0.8182352
53	0x3f05bb0b	0.5223853
54	0x80034b32	-3.02481e-40
55	0x00020b49	1.8772e-40
56	0xbeccf6c4	-0.40032017
57	0xbf61ae12	-0.88156235
58	0x3f2417de	0.6409892
59	0x3e4367dd	0.1908259

fc_1_B f4 [6]
0	0xbe721694	-0.23641425
1	0x3d050129	0.03247181
2	0xbb8f3ef7	-0.0043715197
3	0xbf39853c	-0.72468925
4	0xbd696e89	-0.05699018
5	0x3edf3a4f	0.43599173
